…
v></a></div></div><p>dockerfileの中身はシンプルに</p><ol><li>apt-getで必要なバイナリ収集</li><li>OpenCVをビルドしてインストール</li><li>darknetのビルド</li></ol><p>を行っています。 下記のコマンドで、イメージをpullし、コンテナに入れます。 実行後は、コンテナは破棄されます。 [code lang=”sh”] $ sudo nvidia-docker run –rm -i -t takuyatakeuchi/yolo-darknet:9.1-cudnn7-devel-ubuntu16.04 /bin/bash [/code] コンテナに入ったら、weightファイルを拾ってきて、実行します。 [code lang=”sh”] $ cd /tmp/darknet $ wget wget <a href="https://pjreddie.com/media/files/yolov3.weights">https://pjreddie.com/media/files/yolov3.weights</a> $ /darknet detect cfg/yolov3.cfg yolov3.weights data/dog.jpg layer filters size input output 0 conv 32 3 x 3 / 1 416 x 416 x 3 -&gt; 416 x 416 x 32 0.299 BFLOPs 1 conv 64 3 x 3 / 2 416 x 416 x 32 -&gt; 208 x 208 x 64 1.595 BFLOPs 2 conv 32 1 x 1 / 1 208 x 208 x 64 -&gt; 208 x 208 x 32 0.177 BFLOPs 3 conv 64 3 x 3 / 1 208 x 208 x 32 -&gt; 208 x 208 x 64 1.595 BFLOPs 4 res 1 208 x 208 x 64 -&gt; 208 x 208 x 64 5 conv 128 3 x 3 / 2 208 x 208 x 64 -&gt; 104 x 104 x 128 1.595 BFLOPs 6 conv 64 1 x 1 / 1 104 x 104 x 128 -&gt; 104 x 104 x 64 0.177 BFLOPs 7 conv 128 3 x 3 / 1 104 x 104 x 64 -&gt; 104 x 104 x 128 1.595 BFLOPs 8 res 5 104 x 104 x 128 -&gt; 104 x 104 x 128 9 conv 64 1 x 1 / 1 104 x 104 x 128 -&gt; 104 x 104 x 64 0.177 BFLOPs 10 conv 128 3 x 3 / 1 104 x 104 x 64 -&gt; 104 x 104 x 128 1.595 BFLOPs 11 res 8 104 x 104 x 128 -&gt; 104 x 104 x 128 12 conv 256 3 x 3 / 2 104 x 104 x 128 -&gt; 52 x 52 x 256 1.595 BFLOPs 13 conv 128 1 x 1 / 1 52 x 52 x 256 -&gt; 52 x 52 x 128 0.177 BFLOPs 14 conv 256 3 x 3 / 1 52 x 52 x 128 -&gt; 52 x 52 x 256 1.595 BFLOPs 15 res 12 52 x 52 x 256 -&gt; 52 x 52 x 256 16 conv 128 1 x 1 / 1 52 x 52 x 256 -&gt; 52 x 52 x 128 0.177 BFLOPs 17 conv 256 3 x 3 / 1 52 x 52 x 128 -&gt; 52 x 52 x 256 1.595 BFLOPs 18 res 15 52 x 52 x 256 -&gt; 52 x 52 x 256 19 conv 128 1 x 1 / 1 52 x 52 x 256 -&gt; 52 x 52 x 128 0.177 BFLOPs 20 conv 256 3 x 3 / 1 52 x 52 x 128 -&gt; 52 x 52 x 256 1.595 BFLOPs 21 res 18 52 x 52 x 256 -&gt; 52 x 52 x 256 22 conv 128 1 x 1 / 1 52 x 52 x 256 -&gt; 52 x 52 x 128 0.177 BFLOPs 23 conv 256 3 x 3 / 1 52 x 52 x 128 -&gt; 52 x 52 x 256 1.595 BFLOPs 24 res 21 52 x 52 x 256 -&gt; 52 x 52 x 256 25 conv 128 1 x 1 / 1 52 x 52 x 256 -&gt; 52 x 52 x 128 0.177 BFLOPs 26 conv 256 3 x 3 / 1 52 x 52 x 128 -&gt; 52 x 52 x 256 1.595 BFLOPs 27 res 24 52 x 52 x 256 -&gt; 52 x 52 x 256 28 conv 128 1 x 1 / 1 52 x 52 x 256 -&gt; 52 x 52 x 128 0.177 BFLOPs 29 conv 256 3 x 3 / 1 52 x 52 x 128 -&gt; 52 x 52 x 256 1.595 BFLOPs 30 res 27 52 x 52 x 256 -&gt; 52 x 52 x 256 31 conv 128 1 x 1 / 1 52 x 52 x 256 -&gt; 52 x 52 x 128 0.177 BFLOPs 32 conv 256 3 x 3 / 1 52 x 52 x 128 -&gt; 52 x 52 x 256 1.595 BFLOPs 33 res 30 52 x 52 x 256 -&gt; 52 x 52 x 256 34 conv 128 1 x 1 / 1 52 x 52 x 256 -&gt; 52 x 52 x 128 0.177 BFLOPs 35 conv 256 3 x 3 / 1 52 x 52 x 128 -&gt; 52 x 52 x 256 1.595 BFLOPs 36 res 33 52 x 52 x 256 -&gt; 52 x 52 x 256 37 conv 512 3 x 3 / 2 52 x 52 x 256 -&gt; 26 x 26 x 512 1.595 BFLOPs 38 conv 256 1 x 1 / 1 26 x 26 x 512 -&gt; 26 x 26 x 256 0.177 BFLOPs 39 conv 512 3 x 3 / 1 26 x 26 x 256 -&gt; 26 x 26 x 512 1.595 BFLOPs 40 res 37 26 x 26 x 512 -&gt; 26 x 26 x 512 41 conv 256 1 x 1 / 1 26 x 26 x 512 -&gt; 26 x 26 x 256 0.177 BFLOPs 42 conv 512 3 x 3 / 1 26 x 26 x 256 -&gt; 26 x 26 x 512 1.595 BFLOPs 43 res 40 26 x 26 x 512 -&gt; 26 x 26 x 512 44 conv 256 1 x 1 / 1 26 x 26 x 512 -&gt; 26 x 26 x 256 0.177 BFLOPs 45 conv 512 3 x 3 / 1 26 x 26 x 256 -&gt; 26 x 26 x 512 1.595 BFLOPs 46 res 43 26 x 26 x 512 -&gt; 26 x 26 x 512 47 conv 256 1 x 1 / 1 26 x 26 x 512 -&gt; 26 x 26 x 256 0.177 BFLOPs 48 conv 512 3 x 3 / 1 26 x 26 x 256 -&gt; 26 x 26 x 512 1.595 BFLOPs 49 res 46 26 x 26 x 512 -&gt; 26 x 26 x 512 50 conv 256 1 x 1 / 1 26 x 26 x 512 -&gt; 26 x 26 x 256 0.177 BFLOPs 51 conv 512 3 x 3 / 1 26 x 26 x 256 -&gt; 26 x 26 x 512 1.595 BFLOPs 52 res 49 26 x 26 x 512 -&gt; 26 x 26 x 512 53 conv 256 1 x 1 / 1 26 x 26 x 512 -&gt; 26 x 26 x 256 0.177 BFLOPs 54 conv 512 3 x 3 / 1 26 x 26 x 256 -&gt; 26 x 26 x 512 1.595 BFLOPs 55 res 52 26 x 26 x 512 -&gt; 26 x 26 x 512 56 conv 256 1 x 1 / 1 26 x 26 x 512 -&gt; 26 x 26 x 256 0.177 BFLOPs 57 conv 512 3 x 3 / 1 26 x 26 x 256 -&gt; 26 x 26 x 512 1.595 BFLOPs 58 res 55 26 x 26 x 512 -&gt; 26 x 26 x 512 59 conv 256 1 x 1 / 1 26 x 26 x 512 -&gt; 26 x 26 x 256 0.177 BFLOPs 60 conv 512 3 x 3 / 1 26 x 26 x 256 -&gt; 26 x 26 x 512 1.595 BFLOPs 61 res 58 26 x 26 x 512 -&gt; 26 x 26 x 512 62 conv 1024 3 x 3 / 2 26 x 26 x 512 -&gt; 13 x 13 x1024 1.595 BFLOPs 63 conv 512 1 x 1 / 1 13 x 13 x1024 -&gt; 13 x 13 x 512 0.177 BFLOPs 64 conv 1024 3 x 3 / 1 13 x 13 x 512 -&gt; 13 x 13 x1024 1.595 BFLOPs 65 res 62 13 x 13 x1024 -&gt; 13 x 13 x1024 66 conv 512 1 x 1 / 1 13 x 13 x1024 -&gt; 13 x 13 x 512 0.177 BFLOPs 67 conv 1024 3 x 3 / 1 13 x 13 x 512 -&gt; 13 x 13 x1024 1.595 BFLOPs 68 res 65 13 x 13 x1024 -&gt; 13 x 13 x1024 69 conv 512 1 x 1 / 1 13 x 13 x1024 -&gt; 13 x 13 x 512 0.177 BFLOPs 70 conv 1024 3 x 3 / 1 13 x 13 x 512 -&gt; 13 x 13 x1024 1.595 BFLOPs 71 res 68 13 x 13 x1024 -&gt; 13 x 13 x1024 72 conv 512 1 x 1 / 1 13 x 13 x1024 -&gt; 13 x 13 x 512 0.177 BFLOPs 73 conv 1024 3 x 3 / 1 13 x 13 x 512 -&gt; 13 x 13 x1024 1.595 BFLOPs 74 res 71 13 x 13 x1024 -&gt; 13 x 13 x1024 75 conv 512 1 x 1 / 1 13 x 13 x1024 -&gt; 13 x 13 x 512 0.177 BFLOPs 76 conv 1024 3 x 3 / 1 13 x 13 x 512 -&gt; 13 x 13 x1024 1.595 BFLOPs 77 conv 512 1 x 1 / 1 13 x 13 x1024 -&gt; 13 x 13 x 512 0.177 BFLOPs 78 conv 1024 3 x 3 / 1 13 x 13 x 512 -&gt; 13 x 13 x1024 1.595 BFLOPs 79 conv 512 1 x 1 / 1 13 x 13 x1024 -&gt; 13 x 13 x 512 0.177 BFLOPs 80 conv 1024 3 x 3 / 1 13 x 13 x 512 -&gt; 13 x 13 x1024 1.595 BFLOPs 81 conv 255 1 x 1 / 1 13 x 13 x1024 -&gt; 13 x 13 x 255 0.088 BFLOPs 82 detection 83 route 79 84 conv 256 1 x 1 / 1 13 x 13 x 512 -&gt; 13 x 13 x 256 0.044 BFLOPs 85 upsample 2x 13 x 13 x 256 -&gt; 26 x 26 x 256 86 route 85 61 87 conv 256 1 x 1 / 1 26 x 26 x 768 -&gt; 26 x 26 x 256 0.266 BFLOPs 88 conv 512 3 x 3 / 1 26 x 26 x 256 -&gt; 26 x 26 x 512 1.595 BFLOPs 89 conv 256 1 x 1 / 1 26 x 26 x 512 -&gt; 26 x 26 x 256 0.177 BFLOPs 90 conv 512 3 x 3 / 1 26 x 26 x 256 -&gt; 26 x 26 x 512 1.595 BFLOPs 91 conv 256 1 x 1 / 1 26 x 26 x 512 -&gt; 26 x 26 x 256 0.177 BFLOPs 92 conv 512 3 x 3 / 1 26 x 26 x 256 -&gt; 26 x 26 x 512 1.595 BFLOPs 93 conv 255 1 x 1 / 1 26 x 26 x 512 -&gt; 26 x 26 x 255 0.177 BFLOPs 94 detection 95 route 91 96 conv 128 1 x 1 / 1 26 x 26 x 256 -&gt; 26 x 26 x 128 0.044 BFLOPs 97 upsample 2x 26 x 26 x 128 -&gt; 52 x 52 x 128 98 route 97 36 99 conv 128 1 x 1 / 1 52 x 52 x 384 -&gt; 52 x 52 x 128 0.266 BFLOPs 100 conv 256 3 x 3 / 1 52 x 52 x 128 -&gt; 52 x 52 x 256 1.595 BFLOPs 101 conv 128 1 x 1 / 1 52 x 52 x 256 -&gt; 52 x 52 x 128 0.177 BFLOPs 102 conv 256 3 x 3 / 1 52 x 52 x 128 -&gt; 52 x 52 x 256 1.595 BFLOPs 103 conv 128 1 x 1 / 1 52 x 52 x 256 -&gt; 52 x 52 x 128 0.177 BFLOPs 104 conv 256 3 x 3 / 1 52 x 52 x 128 -&gt; 52 x 52 x 256 1.595 BFLOPs 105 conv 255 1 x 1 / 1 52 x 52 x 256 -&gt; 52 x 52 x 255 0.353 BFLOPs 106 detection Loading weights from yolov3.weights…Done! data/dog.jpg: Predicted in 0.028881 seconds. dog: 99% truck: 93% bicycle: 99%<br>(predictions:21): Gtk-WARNING **: cannot open display: [/code] Windows版と遜色ない性能です。 Docker経由でも性能は変わりません。 CUIでの実行なので、本来はOpenCV経由で画像が画面に表示されますが、それはエラーになっています。 ただし、出力結果はディスクに<strong>predictions.jpg</strong>として出力されていますので確認できます。 <strong>scp</strong>コマンドで画像ファイルを転送するなりして確認します。 [code lang=”sh”] $ scp ./predictions.jpg XXXX@:~ [/code]<br><a href="../../../../public/2018/05/predictions.jpg"><img src="../../../../public/2018/05/predictions.jpg"></a></p>]]></content>
…
トにしたいので放置。 なので、YOLOを実装している深層学習フレームワーク <strong>Darknet</strong> のWindows版を試すことに。 </p><p>仕事でも上のリポジトリにはお世話になりました。 今回もこれを使います。 使い方は上に書いてあるとおり。</p><ul><li>OpenCV 3.4.0</li><li>cuDNN 7.0</li><li>CUDA 9.1</li></ul><p>を用意して、環境変数追加、C++のプロジェクトファイルの書き換えだけです。 なので省略!! 肝心の比較。 テスト画像はお馴染みの自転車と犬と車 (768x576)。 ちなみに公式ページと結果が異なるのは、Windows版であるからだとおもいますが、劇的に違うわけでは無いので無視。</p><h2 id="YOLOV2"><a href="#YOLOV2" class="headerlink" title="YOLOV2"></a>YOLOV2</h2><p>[code lang=”ps”] D:\Works\Local\darknet\build\darknet\x64&gt; .\darknet.exe detect cfg\yolov2.cfg yolov2.weights data\dog.jpg layer filters size input output 0 conv 32 3 x 3 / 1 416 x 416 x 3 -&gt; 416 x 416 x 32 1 max 2 x 2 / 2 416 x 416 x 32 -&gt; 208 x 208 x 32 2 conv 64 3 x 3 / 1 208 x 208 x 32 -&gt; 208 x 208 x 64 3 max 2 x 2 / 2 208 x 208 x 64 -&gt; 104 x 104 x 64 4 conv 128 3 x 3 / 1 104 x 104 x 64 -&gt; 104 x 104 x 128 5 conv 64 1 x 1 / 1 104 x 104 x 128 -&gt; 104 x 104 x 64 6 conv 128 3 x 3 / 1 104 x 104 x 64 -&gt; 104 x 104 x 128 7 max 2 x 2 / 2 104 x 104 x 128 -&gt; 52 x 52 x 128 8 conv 256 3 x 3 / 1 52 x 52 x 128 -&gt; 52 x 52 x 256 9 conv 128 1 x 1 / 1 52 x 52 x 256 -&gt; 52 x 52 x 128 10 conv 256 3 x 3 / 1 52 x 52 x 128 -&gt; 52 x 52 x 256 11 max 2 x 2 / 2 52 x 52 x 256 -&gt; 26 x 26 x 256 12 conv 512 3 x 3 / 1 26 x 26 x 256 -&gt; 26 x 26 x 512 13 conv 256 1 x 1 / 1 26 x 26 x 512 -&gt; 26 x 26 x 256 14 conv 512 3 x 3 / 1 26 x 26 x 256 -&gt; 26 x 26 x 512 15 conv 256 1 x 1 / 1 26 x 26 x 512 -&gt; 26 x 26 x 256 16 conv 512 3 x 3 / 1 26 x 26 x 256 -&gt; 26 x 26 x 512 17 max 2 x 2 / 2 26 x 26 x 512 -&gt; 13 x 13 x 512 18 conv 1024 3 x 3 / 1 13 x 13 x 512 -&gt; 13 x 13 x1024 19 conv 512 1 x 1 / 1 13 x 13 x1024 -&gt; 13 x 13 x 512 20 conv 1024 3 x 3 / 1 13 x 13 x 512 -&gt; 13 x 13 x1024 21 conv 512 1 x 1 / 1 13 x 13 x1024 -&gt; 13 x 13 x 512 22 conv 1024 3 x 3 / 1 13 x 13 x 512 -&gt; 13 x 13 x1024 23 conv 1024 3 x 3 / 1 13 x 13 x1024 -&gt; 13 x 13 x1024 24 conv 1024 3 x 3 / 1 13 x 13 x1024 -&gt; 13 x 13 x1024 25 route 16 26 conv 64 1 x 1 / 1 26 x 26 x 512 -&gt; 26 x 26 x 64 27 reorg / 2 26 x 26 x 64 -&gt; 13 x 13 x 256 28 route 27 24 29 conv 1024 3 x 3 / 1 13 x 13 x1280 -&gt; 13 x 13 x1024 30 conv 425 1 x 1 / 1 13 x 13 x1024 -&gt; 13 x 13 x 425 31 detection mask_scale: Using default ‘1.000000’ Loading weights from yolov2.weights… seen 32 Done! data\dog.jpg: Predicted in 0.012998 seconds. pottedplant: 24% bicycle: 25% dog: 82% bicycle: 82% truck: 74% [/code]</p><h2 id="YOLOV3"><a href="#YOLOV3" class="headerlink" title="YOLOV3"></a>YOLOV3</h2><p>[code lang=”ps”] PS D:\Works\Local\darknet\build\darknet\x64&gt; .\darknet.exe detect cfg\yolov3.cfg yolov3.weights data\dog.jpg layer filters size input output 0 conv 32 3 x 3 / 1 416 x 416 x 3 -&gt; 416 x 416 x 32 1 conv 64 3 x 3 / 2 416 x 416 x 32 -&gt; 208 x 208 x 64 2 conv 32 1 x 1 / 1 208 x 208 x 64 -&gt; 208 x 208 x 32 3 conv 64 3 x 3 / 1 208 x 208 x 32 -&gt; 208 x 208 x 64 4 Shortcut Layer: 1 5 conv 128 3 x 3 / 2 208 x 208 x 64 -&gt; 104 x 104 x 128 6 conv 64 1 x 1 / 1 104 x 104 x 128 -&gt; 104 x 104 x 64 7 conv 128 3 x 3 / 1 104 x 104 x 64 -&gt; 104 x 104 x 128 8 Shortcut Layer: 5 9 conv 64 1 x 1 / 1 104 x 104 x 128 -&gt; 104 x 104 x 64 10 conv 128 3 x 3 / 1 104 x 104 x 64 -&gt; 104 x 104 x 128 11 Shortcut Layer: 8 12 conv 256 3 x 3 / 2 104 x 104 x 128 -&gt; 52 x 52 x 256 13 conv 128 1 x 1 / 1 52 x 52 x 256 -&gt; 52 x 52 x 128 14 conv 256 3 x 3 / 1 52 x 52 x 128 -&gt; 52 x 52 x 256 15 Shortcut Layer: 12 16 conv 128 1 x 1 / 1 52 x 52 x 256 -&gt; 52 x 52 x 128 17 conv 256 3 x 3 / 1 52 x 52 x 128 -&gt; 52 x 52 x 256 18 Shortcut Layer: 15 19 conv 128 1 x 1 / 1 52 x 52 x 256 -&gt; 52 x 52 x 128 20 conv 256 3 x 3 / 1 52 x 52 x 128 -&gt; 52 x 52 x 256 21 Shortcut Layer: 18 22 conv 128 1 x 1 / 1 52 x 52 x 256 -&gt; 52 x 52 x 128 23 conv 256 3 x 3 / 1 52 x 52 x 128 -&gt; 52 x 52 x 256 24 Shortcut Layer: 21 25 conv 128 1 x 1 / 1 52 x 52 x 256 -&gt; 52 x 52 x 128 26 conv 256 3 x 3 / 1 52 x 52 x 128 -&gt; 52 x 52 x 256 27 Shortcut Layer: 24 28 conv 128 1 x 1 / 1 52 x 52 x 256 -&gt; 52 x 52 x 128 29 conv 256 3 x 3 / 1 52 x 52 x 128 -&gt; 52 x 52 x 256 30 Shortcut Layer: 27 31 conv 128 1 x 1 / 1 52 x 52 x 256 -&gt; 52 x 52 x 128 32 conv 256 3 x 3 / 1 52 x 52 x 128 -&gt; 52 x 52 x 256 33 Shortcut Layer: 30 34 conv 128 1 x 1 / 1 52 x 52 x 256 -&gt; 52 x 52 x 128 35 conv 256 3 x 3 / 1 52 x 52 x 128 -&gt; 52 x 52 x 256 36 Shortcut Layer: 33 37 conv 512 3 x 3 / 2 52 x 52 x 256 -&gt; 26 x 26 x 512 38 conv 256 1 x 1 / 1 26 x 26 x 512 -&gt; 26 x 26 x 256 39 conv 512 3 x 3 / 1 26 x 26 x 256 -&gt; 26 x 26 x 512 40 Shortcut Layer: 37 41 conv 256 1 x 1 / 1 26 x 26 x 512 -&gt; 26 x 26 x 256 42 conv 512 3 x 3 / 1 26 x 26 x 256 -&gt; 26 x 26 x 512 43 Shortcut Layer: 40 44 conv 256 1 x 1 / 1 26 x 26 x 512 -&gt; 26 x 26 x 256 45 conv 512 3 x 3 / 1 26 x 26 x 256 -&gt; 26 x 26 x 512 46 Shortcut Layer: 43 47 conv 256 1 x 1 / 1 26 x 26 x 512 -&gt; 26 x 26 x 256 48 conv 512 3 x 3 / 1 26 x 26 x 256 -&gt; 26 x 26 x 512 49 Shortcut Layer: 46 50 conv 256 1 x 1 / 1 26 x 26 x 512 -&gt; 26 x 26 x 256 51 conv 512 3 x 3 / 1 26 x 26 x 256 -&gt; 26 x 26 x 512 52 Shortcut Layer: 49 53 conv 256 1 x 1 / 1 26 x 26 x 512 -&gt; 26 x 26 x 256 54 conv 512 3 x 3 / 1 26 x 26 x 256 -&gt; 26 x 26 x 512 55 Shortcut Layer: 52 56 conv 256 1 x 1 / 1 26 x 26 x 512 -&gt; 26 x 26 x 256 57 conv 512 3 x 3 / 1 26 x 26 x 256 -&gt; 26 x 26 x 512 58 Shortcut Layer: 55 59 conv 256 1 x 1 / 1 26 x 26 x 512 -&gt; 26 x 26 x 256 60 conv 512 3 x 3 / 1 26 x 26 x 256 -&gt; 26 x 26 x 512 61 Shortcut Layer: 58 62 conv 1024 3 x 3 / 2 26 x 26 x 512 -&gt; 13 x 13 x1024 63 conv 512 1 x 1 / 1 13 x 13 x1024 -&gt; 13 x 13 x 512 64 conv 1024 3 x 3 / 1 13 x 13 x 512 -&gt; 13 x 13 x1024 65 Shortcut Layer: 62 66 conv 512 1 x 1 / 1 13 x 13 x1024 -&gt; 13 x 13 x 512 67 conv 1024 3 x 3 / 1 13 x 13 x 512 -&gt; 13 x 13 x1024 68 Shortcut Layer: 65 69 conv 512 1 x 1 / 1 13 x 13 x1024 -&gt; 13 x 13 x 512 70 conv 1024 3 x 3 / 1 13 x 13 x 512 -&gt; 13 x 13 x1024 71 Shortcut Layer: 68 72 conv 512 1 x 1 / 1 13 x 13 x1024 -&gt; 13 x 13 x 512 73 conv 1024 3 x 3 / 1 13 x 13 x 512 -&gt; 13 x 13 x1024 74 Shortcut Layer: 71 75 conv 512 1 x 1 / 1 13 x 13 x1024 -&gt; 13 x 13 x 512 76 conv 1024 3 x 3 / 1 13 x 13 x 512 -&gt; 13 x 13 x1024 77 conv 512 1 x 1 / 1 13 x 13 x1024 -&gt; 13 x 13 x 512 78 conv 1024 3 x 3 / 1 13 x 13 x 512 -&gt; 13 x 13 x1024 79 conv 512 1 x 1 / 1 13 x 13 x1024 -&gt; 13 x 13 x 512 80 conv 1024 3 x 3 / 1 13 x 13 x 512 -&gt; 13 x 13 x1024 81 conv 255 1 x 1 / 1 13 x 13 x1024 -&gt; 13 x 13 x 255 82 detection 83 route 79 84 conv 256 1 x 1 / 1 13 x 13 x 512 -&gt; 13 x 13 x 256 85 upsample 2x 13 x 13 x 256 -&gt; 26 x 26 x 256 86 route 85 61 87 conv 256 1 x 1 / 1 26 x 26 x 768 -&gt; 26 x 26 x 256 88 conv 512 3 x 3 / 1 26 x 26 x 256 -&gt; 26 x 26 x 512 89 conv 256 1 x 1 / 1 26 x 26 x 512 -&gt; 26 x 26 x 256 90 conv 512 3 x 3 / 1 26 x 26 x 256 -&gt; 26 x 26 x 512 91 conv 256 1 x 1 / 1 26 x 26 x 512 -&gt; 26 x 26 x 256 92 conv 512 3 x 3 / 1 26 x 26 x 256 -&gt; 26 x 26 x 512 93 conv 255 1 x 1 / 1 26 x 26 x 512 -&gt; 26 x 26 x 255 94 detection 95 route 91 96 conv 128 1 x 1 / 1 26 x 26 x 256 -&gt; 26 x 26 x 128 97 upsample 2x 26 x 26 x 128 -&gt; 52 x 52 x 128 98 route 97 36 99 conv 128 1 x 1 / 1 52 x 52 x 384 -&gt; 52 x 52 x 128 100 conv 256 3 x 3 / 1 52 x 52 x 128 -&gt; 52 x 52 x 256 101 conv 128 1 x 1 / 1 52 x 52 x 256 -&gt; 52 x 52 x 128 102 conv 256 3 x 3 / 1 52 x 52 x 128 -&gt; 52 x 52 x 256 103 conv 128 1 x 1 / 1 52 x 52 x 256 -&gt; 52 x 52 x 128 104 conv 256 3 x 3 / 1 52 x 52 x 128 -&gt; 52 x 52 x 256 105 conv 255 1 x 1 / 1 52 x 52 x 256 -&gt; 52 x 52 x 255 106 detection Loading weights from yolov3.weights… seen 64 Done! data\dog.jpg: Predicted in 0.027030 seconds. dog: 99% car: 25% bicycle: 99% truck: 93% [/code]</p><h2 id="Tiny-YOLO"><a href="#Tiny-YOLO" class="headerlink" title="Tiny YOLO"></a>Tiny YOLO</h2><p>[code lang=”ps”] D:\Works\Local\darknet\build\darknet\x64&gt; .\darknet.exe detect .\cfg\yolov2-tiny.cfg .\yolov2-tiny.weights .\data\dog .jpg layer filters size input output 0 conv 16 3 x 3 / 1 416 x 416 x 3 -&gt; 416 x 416 x 16 1 max 2 x 2 / 2 416 x 416 x 16 -&gt; 208 x 208 x 16 2 conv 32 3 x 3 / 1 208 x 208 x 16 -&gt; 208 x 208 x 32 3 max 2 x 2 / 2 208 x 208 x 32 -&gt; 104 x 104 x 32 4 conv 64 3 x 3 / 1 104 x 104 x 32 -&gt; 104 x 104 x 64 5 max 2 x 2 / 2 104 x 104 x 64 -&gt; 52 x 52 x 64 6 conv 128 3 x 3 / 1 52 x 52 x 64 -&gt; 52 x 52 x 128 7 max 2 x 2 / 2 52 x 52 x 128 -&gt; 26 x 26 x 128 8 conv 256 3 x 3 / 1 26 x 26 x 128 -&gt; 26 x 26 x 256 9 max 2 x 2 / 2 26 x 26 x 256 -&gt; 13 x 13 x 256 10 conv 512 3 x 3 / 1 13 x 13 x 256 -&gt; 13 x 13 x 512 11 max 2 x 2 / 1 13 x 13 x 512 -&gt; 13 x 13 x 512 12 conv 1024 3 x 3 / 1 13 x 13 x 512 -&gt; 13 x 13 x1024 13 conv 512 3 x 3 / 1 13 x 13 x1024 -&gt; 13 x 13 x 512 14 conv 425 1 x 1 / 1 13 x 13 x 512 -&gt; 13 x 13 x 425 15 detection mask_scale: Using default ‘1.000000’ Loading weights from .\yolov2-tiny.weights… seen 64 Done! .\data\dog.jpg: Predicted in 0.005972 seconds. dog: 82% car: 24% bicycle: 26% car: 30% bicycle: 59% person: 26% person: 28% car: 41% car: 73% [/code]</p><h1 id="Compare"><a href="#Compare" class="headerlink" title="Compare!!"></a>Compare!!</h1><p>GPUの性能が良いか
…
